…
2025-05-04 05:15:14,647 [INFO] - [resnet] Evaluation results saved to C:\Users\Gading\Downloads\Research\Results\MutualLearning\evaluation\resnet
2025-05-04 05:15:14,648 [INFO] - Generating prediction visualizations for resnet...
2025-05-04 05:15:17,061 [INFO] - Prediction visualizations saved to C:\Users\Gading\Downloads\Research\Results\MutualLearning\evaluation\resnet/prediction_examples.png
2025-05-04 05:15:17,063 [INFO] - Generating GradCAM visualizations for resnet...
2025-05-04 05:15:17,092 [INFO] - Detected architecture for resnet: resnet
2025-05-04 05:15:17,093 [INFO] - Using target layer for resnet: Sequential(
  (0): Bottleneck(
    (conv1): Conv2d(1024, 512, kernel_size=(1, 1), stride=(1, 1), bias=False)
    (bn1): BatchNorm2d(512, eps=1e-05, momentum=0.1, affine=True, track_running_stats=True)
    (conv2): Conv2d(512, 512, kernel_size=(3, 3), stride=(2, 2), padding=(1, 1), bias=False)
    (bn2): BatchNorm2d(512, eps=1e-05, momentum=0.1, affine=True, track_running_stats=True)
    (conv3): Conv2d(512, 2048, kernel_size=(1, 1), stride=(1, 1), bias=False)
    (bn3): BatchNorm2d(2048, eps=1e-05, momentum=0.1, affine=True, track_running_stats=True)
    (relu): ReLU(inplace=True)
    (downsample): Sequential(
      (0): Conv2d(1024, 2048, kernel_size=(1, 1), stride=(2, 2), bias=False)
      (1): BatchNorm2d(2048, eps=1e-05, momentum=0.1, affine=True, track_running_stats=True)
    )
  )
  (1): Bottleneck(
    (conv1): Conv2d(2048, 512, kernel_size=(1, 1), stride=(1, 1), bias=False)
    (bn1): BatchNorm2d(512, eps=1e-05, momentum=0.1, affine=True, track_running_stats=True)
    (conv2): Conv2d(512, 512, kernel_size=(3, 3), stride=(1, 1), padding=(1, 1), bias=False)
    (bn2): BatchNorm2d(512, eps=1e-05, momentum=0.1, affine=True, track_running_stats=True)
    (conv3): Conv2d(512, 2048, kernel_size=(1, 1), stride=(1, 1), bias=False)
    (bn3): BatchNorm2d(2048, eps=1e-05, momentum=0.1, affine=True, track_running_stats=True)
    (relu): ReLU(inplace=True)
  )
  (2): Bottleneck(
    (conv1): Conv2d(2048, 512, kernel_size=(1, 1), stride=(1, 1), bias=False)
    (bn1): BatchNorm2d(512, eps=1e-05, momentum=0.1, affine=True, track_running_stats=True)
    (conv2): Conv2d(512, 512, kernel_size=(3, 3), stride=(1, 1), padding=(1, 1), bias=False)
    (bn2): BatchNorm2d(512, eps=1e-05, momentum=0.1, affine=True, track_running_stats=True)
    (conv3): Conv2d(512, 2048, kernel_size=(1, 1), stride=(1, 1), bias=False)
    (bn3): BatchNorm2d(2048, eps=1e-05, momentum=0.1, affine=True, track_running_stats=True)
    (relu): ReLU(inplace=True)
  )
)
2025-05-04 05:15:17,094 [INFO] - [resnet] Generating GradCAM for class 'airplane'
2025-05-04 05:15:17,516 [INFO] - [resnet] Generating GradCAM for class 'automobile'
2025-05-04 05:15:17,842 [INFO] - [resnet] Generating GradCAM for class 'bird'
2025-05-04 05:15:18,164 [INFO] - [resnet] Generating GradCAM for class 'cat'
…
2025-05-04 05:16:11,491 [INFO] - [densenet] Evaluation results saved to C:\Users\Gading\Downloads\Research\Results\MutualLearning\evaluation\densenet
2025-05-04 05:16:11,491 [INFO] - Generating prediction visualizations for densenet...
2025-05-04 05:16:14,081 [INFO] - Prediction visualizations saved to C:\Users\Gading\Downloads\Research\Results\MutualLearning\evaluation\densenet/prediction_examples.png
2025-05-04 05:16:14,081 [INFO] - Generating GradCAM visualizations for densenet...
2025-05-04 05:16:14,105 [INFO] - Detected architecture for densenet: densenet
2025-05-04 05:16:14,109 [INFO] - Using target layer for densenet: _DenseBlock(
  (denselayer1): _DenseLayer(
    (norm1): BatchNorm2d(512, eps=1e-05, momentum=0.1, affine=True, track_running_stats=True)
    (relu1): ReLU(inplace=True)
    (conv1): Conv2d(512, 128, kernel_size=(1, 1), stride=(1, 1), bias=False)
    (norm2): BatchNorm2d(128, eps=1e-05, momentum=0.1, affine=True, track_running_stats=True)
    (relu2): ReLU(inplace=True)
    (conv2): Conv2d(128, 32, kernel_size=(3, 3), stride=(1, 1), padding=(1, 1), bias=False)
  )
  (denselayer2): _DenseLayer(
    (norm1): BatchNorm2d(544, eps=1e-05, momentum=0.1, affine=True, track_running_stats=True)
    (relu1): ReLU(inplace=True)
    (conv1): Conv2d(544, 128, kernel_size=(1, 1), stride=(1, 1), bias=False)
    (norm2): BatchNorm2d(128, eps=1e-05, momentum=0.1, affine=True, track_running_stats=True)
    (relu2): ReLU(inplace=True)
    (conv2): Conv2d(128, 32, kernel_size=(3, 3), stride=(1, 1), padding=(1, 1), bias=False)
  )
  (denselayer3): _DenseLayer(
    (norm1): BatchNorm2d(576, eps=1e-05, momentum=0.1, affine=True, track_running_stats=True)
    (relu1): ReLU(inplace=True)
    (conv1): Conv2d(576, 128, kernel_size=(1, 1), stride=(1, 1), bias=False)
    (norm2): BatchNorm2d(128, eps=1e-05, momentum=0.1, affine=True, track_running_stats=True)
    (relu2): ReLU(inplace=True)
    (conv2): Conv2d(128, 32, kernel_size=(3, 3), stride=(1, 1), padding=(1, 1), bias=False)
  )
  (denselayer4): _DenseLayer(
    (norm1): BatchNorm2d(608, eps=1e-05, momentum=0.1, affine=True, track_running_stats=True)
    (relu1): ReLU(inplace=True)
    (conv1): Conv2d(608, 128, kernel_size=(1, 1), stride=(1, 1), bias=False)
    (norm2): BatchNorm2d(128, eps=1e-05, momentum=0.1, affine=True, track_running_stats=True)
    (relu2): ReLU(inplace=True)
    (conv2): Conv2d(128, 32, kernel_size=(3, 3), stride=(1, 1), padding=(1, 1), bias=False)
  )
  (denselayer5): _DenseLayer(
    (norm1): BatchNorm2d(640, eps=1e-05, momentum=0.1, affine=True, track_running_stats=True)
    (relu1): ReLU(inplace=True)
    (conv1): Conv2d(640, 128, kernel_size=(1, 1), stride=(1, 1), bias=False)
    (norm2): BatchNorm2d(128, eps=1e-05, momentum=0.1, affine=True, track_running_stats=True)
    (relu2): ReLU(inplace=True)
    (conv2): Conv2d(128, 32, kernel_size=(3, 3), stride=(1, 1), padding=(1, 1), bias=False)
  )
  (denselayer6): _DenseLayer(
    (norm1): BatchNorm2d(672, eps=1e-05, momentum=0.1, affine=True, track_running_stats=True)
    (relu1): ReLU(inplace=True)
    (conv1): Conv2d(672, 128, kernel_size=(1, 1), stride=(1, 1), bias=False)
    (norm2): BatchNorm2d(128, eps=1e-05, momentum=0.1, affine=True, track_running_stats=True)
    (relu2): ReLU(inplace=True)
    (conv2): Conv2d(128, 32, kernel_size=(3, 3), stride=(1, 1), padding=(1, 1), bias=False)
  )
  (denselayer7): _DenseLayer(
    (norm1): BatchNorm2d(704, eps=1e-05, momentum=0.1, affine=True, track_running_stats=True)
    (relu1): ReLU(inplace=True)
    (conv1): Conv2d(704, 128, kernel_size=(1, 1), stride=(1, 1), bias=False)
    (norm2): BatchNorm2d(128, eps=1e-05, momentum=0.1, affine=True, track_running_stats=True)
    (relu2): ReLU(inplace=True)
    (conv2): Conv2d(128, 32, kernel_size=(3, 3), stride=(1, 1), padding=(1, 1), bias=False)
  )
  (denselayer8): _DenseLayer(
    (norm1): BatchNorm2d(736, eps=1e-05, momentum=0.1, affine=True, track_running_stats=True)
    (relu1): ReLU(inplace=True)
    (conv1): Conv2d(736, 128, kernel_size=(1, 1), stride=(1, 1), bias=False)
    (norm2): BatchNorm2d(128, eps=1e-05, momentum=0.1, affine=True, track_running_stats=True)
    (relu2): ReLU(inplace=True)
    (conv2): Conv2d(128, 32, kernel_size=(3, 3), stride=(1, 1), padding=(1, 1), bias=False)
  )
  (denselayer9): _DenseLayer(
    (norm1): BatchNorm2d(768, eps=1e-05, momentum=0.1, affine=True, track_running_stats=True)
    (relu1): ReLU(inplace=True)
    (conv1): Conv2d(768, 128, kernel_size=(1, 1), stride=(1, 1), bias=False)
    (norm2): BatchNorm2d(128, eps=1e-05, momentum=0.1, affine=True, track_running_stats=True)
    (relu2): ReLU(inplace=True)
    (conv2): Conv2d(128, 32, kernel_size=(3, 3), stride=(1, 1), padding=(1, 1), bias=False)
  )
  (denselayer10): _DenseLayer(
    (norm1): BatchNorm2d(800, eps=1e-05, momentum=0.1, affine=True, track_running_stats=True)
    (relu1): ReLU(inplace=True)
    (conv1): Conv2d(800, 128, kernel_size=(1, 1), stride=(1, 1), bias=False)
    (norm2): BatchNorm2d(128, eps=1e-05, momentum=0.1, affine=True, track_running_stats=True)
    (relu2): ReLU(inplace=True)
    (conv2): Conv2d(128, 32, kernel_size=(3, 3), stride=(1, 1), padding=(1, 1), bias=False)
  )
  (denselayer11): _DenseLayer(
    (norm1): BatchNorm2d(832, eps=1e-05, momentum=0.1, affine=True, track_running_stats=True)
    (relu1): ReLU(inplace=True)
    (conv1): Conv2d(832, 128, kernel_size=(1, 1), stride=(1, 1), bias=False)
    (norm2): BatchNorm2d(128, eps=1e-05, momentum=0.1, affine=True, track_running_stats=True)
    (relu2): ReLU(inplace=True)
    (conv2): Conv2d(128, 32, kernel_size=(3, 3), stride=(1, 1), padding=(1, 1), bias=False)
  )
  (denselayer12): _DenseLayer(
    (norm1): BatchNorm2d(864, eps=1e-05, momentum=0.1, affine=True, track_running_stats=True)
    (relu1): ReLU(inplace=True)
    (conv1): Conv2d(864, 128, kernel_size=(1, 1), stride=(1, 1), bias=False)
    (norm2): BatchNorm2d(128, eps=1e-05, momentum=0.1, affine=True, track_running_stats=True)
    (relu2): ReLU(inplace=True)
    (conv2): Conv2d(128, 32, kernel_size=(3, 3), stride=(1, 1), padding=(1, 1), bias=False)
  )
  (denselayer13): _DenseLayer(
    (norm1): BatchNorm2d(896, eps=1e-05, momentum=0.1, affine=True, track_running_stats=True)
    (relu1): ReLU(inplace=True)
    (conv1): Conv2d(896, 128, kernel_size=(1, 1), stride=(1, 1), bias=False)
    (norm2): BatchNorm2d(128, eps=1e-05, momentum=0.1, affine=True, track_running_stats=True)
    (relu2): ReLU(inplace=True)
    (conv2): Conv2d(128, 32, kernel_size=(3, 3), stride=(1, 1), padding=(1, 1), bias=False)
  )
  (denselayer14): _DenseLayer(
    (norm1): BatchNorm2d(928, eps=1e-05, momentum=0.1, affine=True, track_running_stats=True)
    (relu1): ReLU(inplace=True)
    (conv1): Conv2d(928, 128, kernel_size=(1, 1), stride=(1, 1), bias=False)
    (norm2): BatchNorm2d(128, eps=1e-05, momentum=0.1, affine=True, track_running_stats=True)
    (relu2): ReLU(inplace=True)
    (conv2): Conv2d(128, 32, kernel_size=(3, 3), stride=(1, 1), padding=(1, 1), bias=False)
  )
  (denselayer15): _DenseLayer(
    (norm1): BatchNorm2d(960, eps=1e-05, momentum=0.1, affine=True, track_running_stats=True)
    (relu1): ReLU(inplace=True)
    (conv1): Conv2d(960, 128, kernel_size=(1, 1), stride=(1, 1), bias=False)
    (norm2): BatchNorm2d(128, eps=1e-05, momentum=0.1, affine=True, track_running_stats=True)
    (relu2): ReLU(inplace=True)
    (conv2): Conv2d(128, 32, kernel_size=(3, 3), stride=(1, 1), padding=(1, 1), bias=False)
  )
  (denselayer16): _DenseLayer(
    (norm1): BatchNorm2d(992, eps=1e-05, momentum=0.1, affine=True, track_running_stats=True)
    (relu1): ReLU(inplace=True)
    (conv1): Conv2d(992, 128, kernel_size=(1, 1), stride=(1, 1), bias=False)
    (norm2): BatchNorm2d(128, eps=1e-05, momentum=0.1, affine=True, track_running_stats=True)
    (relu2): ReLU(inplace=True)
    (conv2): Conv2d(128, 32, kernel_size=(3, 3), stride=(1, 1), padding=(1, 1), bias=False)
  )
)
2025-05-04 05:16:14,109 [INFO] - [densenet] Generating GradCAM for class 'airplane'
2025-05-04 05:16:14,649 [INFO] - [densenet] Generating GradCAM for class 'automobile'
2025-05-04 05:16:15,029 [INFO] - [densenet] Generating GradCAM for class 'bird'
2025-05-04 05:16:15,406 [INFO] - [densenet] Generating GradCAM for class 'cat'
…
